…
To enable them in other operations, rebuild TensorFlow with the appropriate compiler flags.
WARNING:tensorflow:`period` argument is deprecated. Please use `save_freq` to specify the frequency in number of batches seen.
2021-11-15 17:52:34.397867: W tensorflow/core/framework/cpu_allocator_impl.cc:82] Allocation of 188160000 exceeds 10% of free system memory.
Model: "sequential"
_________________________________________________________________
 Layer (type)                Output Shape              Param #
=================================================================
 conv2d (Conv2D)             (None, 26, 26, 32)        320

 max_pooling2d (MaxPooling2D  (None, 13, 13, 32)       0
 )

 conv2d_1 (Conv2D)           (None, 11, 11, 64)        18496

 max_pooling2d_1 (MaxPooling  (None, 5, 5, 64)         0
 2D)

 conv2d_2 (Conv2D)           (None, 3, 3, 64)          36928

 flatten (Flatten)           (None, 576)               0

 dense (Dense)               (None, 64)                36928

 dense_1 (Dense)             (None, 10)                650

=================================================================
Total params: 93,322
Trainable params: 93,322
Non-trainable params: 0
_________________________________________________________________
Epoch 1/5

   1/1875 [..............................] - ETA: 18:00 - loss: 2.2908 - accuracy: 0.1250
   3/1875 [..............................] - ETA: 1:41 - loss: 2.3008 - accuracy: 0.1042 
…
